…
    is_kaggle_kernel: false
    python_version: 3.10.6
    start_time: 1667957032.861612
    t:
      1:
      - 1
      - 2
      - 3
      - 55
      2:
      - 1
      - 2
      - 3
      - 55
      3:
      - 3
      - 16
      - 22
      - 23
      - 35
      4: 3.10.6
      5: 0.13.5
      8:
      - 4
      - 5
action_noise:
  desc: null
  value: None
action_space:
  desc: null
  value: Box([0. 0.], [3. 1.], (2,), float16)
actor:
  desc: null
  value: "Actor(\n  (features_extractor): FlattenExtractor(\n    (flatten): Flatten(start_dim=1,\
    \ end_dim=-1)\n  )\n  (latent_pi): Sequential(\n    (0): Linear(in_features=210,\
    \ out_features=256, bias=True)\n    (1): ReLU()\n    (2): Linear(in_features=256,\
    \ out_features=256, bias=True)\n    (3): ReLU()\n  )\n  (mu): Linear(in_features=256,\
    \ out_features=2, bias=True)\n  (log_std): Linear(in_features=256, out_features=2,\
    \ bias=True)\n)"
algo:
  desc: null
  value: SAC
batch_norm_stats:
  desc: null
  value: '[]'
batch_norm_stats_target:
  desc: null
  value: '[]'
batch_size:
  desc: null
  value: 256
buffer_size:
  desc: null
  value: 1000000
critic:
  desc: null
  value: "ContinuousCritic(\n  (features_extractor): FlattenExtractor(\n    (flatten):\
    \ Flatten(start_dim=1, end_dim=-1)\n  )\n  (qf0): Sequential(\n    (0): Linear(in_features=212,\
    \ out_features=256, bias=True)\n    (1): ReLU()\n    (2): Linear(in_features=256,\
    \ out_features=256, bias=True)\n    (3): ReLU()\n    (4): Linear(in_features=256,\
    \ out_features=1, bias=True)\n  )\n  (qf1): Sequential(\n    (0): Linear(in_features=212,\
    \ out_features=256, bias=True)\n    (1): ReLU()\n    (2): Linear(in_features=256,\
    \ out_features=256, bias=True)\n    (3): ReLU()\n    (4): Linear(in_features=256,\
    \ out_features=1, bias=True)\n  )\n)"
critic_target:
  desc: null
  value: "ContinuousCritic(\n  (features_extractor): FlattenExtractor(\n    (flatten):\
    \ Flatten(start_dim=1, end_dim=-1)\n  )\n  (qf0): Sequential(\n    (0): Linear(in_features=212,\
    \ out_features=256, bias=True)\n    (1): ReLU()\n    (2): Linear(in_features=256,\
    \ out_features=256, bias=True)\n    (3): ReLU()\n    (4): Linear(in_features=256,\
    \ out_features=1, bias=True)\n  )\n  (qf1): Sequential(\n    (0): Linear(in_features=212,\
    \ out_features=256, bias=True)\n    (1): ReLU()\n    (2): Linear(in_features=256,\
    \ out_features=256, bias=True)\n    (3): ReLU()\n    (4): Linear(in_features=256,\
    \ out_features=1, bias=True)\n  )\n)"
device:
  desc: null
  value: cpu
ent_coef:
  desc: null
  value: auto
ent_coef_optimizer:
  desc: null
  value: "Adam (\nParameter Group 0\n    amsgrad: False\n    betas: (0.9, 0.999)\n\
    \    capturable: False\n    differentiable: False\n    eps: 1e-08\n    foreach:\
    \ None\n    fused: False\n    lr: 0.0003\n    maximize: False\n    weight_decay:\
…
    \ 1. 1. 1. 1.\n  1. 1. 1. 1. 1. 1. 1. 1. 1. 1. 1. 1. 1. 1. 1. 1. 1. 1.]\n [1.\
    \ 1. 1. 1. 1. 1. 1. 1. 1. 1. 1. 1. 1. 1. 1. 1. 1. 1. 1. 1. 1. 1. 1. 1.\n  1. 1.\
    \ 1. 1. 1. 1. 1. 1. 1. 1. 1. 1. 1. 1. 1. 1. 1. 1.]\n [1. 1. 1. 1. 1. 1. 1. 1.\
    \ 1. 1. 1. 1. 1. 1. 1. 1. 1. 1. 1. 1. 1. 1. 1. 1.\n  1. 1. 1. 1. 1. 1. 1. 1. 1.\
    \ 1. 1. 1. 1. 1. 1. 1. 1. 1.]], (5, 42), float16)"
optimize_memory_usage:
  desc: null
  value: 'False'
policy:
  desc: null
  value: "SACPolicy(\n  (actor): Actor(\n    (features_extractor): FlattenExtractor(\n\
    \      (flatten): Flatten(start_dim=1, end_dim=-1)\n    )\n    (latent_pi): Sequential(\n\
    \      (0): Linear(in_features=210, out_features=256, bias=True)\n      (1): ReLU()\n\
    \      (2): Linear(in_features=256, out_features=256, bias=True)\n      (3): ReLU()\n\
    \    )\n    (mu): Linear(in_features=256, out_features=2, bias=True)\n    (log_std):\
    \ Linear(in_features=256, out_features=2, bias=True)\n  )\n  (critic): ContinuousCritic(\n\
    \    (features_extractor): FlattenExtractor(\n      (flatten): Flatten(start_dim=1,\
    \ end_dim=-1)\n    )\n    (qf0): Sequential(\n      (0): Linear(in_features=212,\
    \ out_features=256, bias=True)\n      (1): ReLU()\n      (2): Linear(in_features=256,\
    \ out_features=256, bias=True)\n      (3): ReLU()\n      (4): Linear(in_features=256,\
    \ out_features=1, bias=True)\n    )\n    (qf1): Sequential(\n      (0): Linear(in_features=212,\
    \ out_features=256, bias=True)\n      (1): ReLU()\n      (2): Linear(in_features=256,\
    \ out_features=256, bias=True)\n      (3): ReLU()\n      (4): Linear(in_features=256,\
    \ out_features=1, bias=True)\n    )\n  )\n  (critic_target): ContinuousCritic(\n\
    \    (features_extractor): FlattenExtractor(\n      (flatten): Flatten(start_dim=1,\
    \ end_dim=-1)\n    )\n    (qf0): Sequential(\n      (0): Linear(in_features=212,\
    \ out_features=256, bias=True)\n      (1): ReLU()\n      (2): Linear(in_features=256,\
    \ out_features=256, bias=True)\n      (3): ReLU()\n      (4): Linear(in_features=256,\
    \ out_features=1, bias=True)\n    )\n    (qf1): Sequential(\n      (0): Linear(in_features=212,\
    \ out_features=256, bias=True)\n      (1): ReLU()\n      (2): Linear(in_features=256,\
    \ out_features=256, bias=True)\n      (3): ReLU()\n      (4): Linear(in_features=256,\
    \ out_features=1, bias=True)\n    )\n  )\n)"
policy_class:
  desc: null
  value: <class 'stable_baselines3.sac.policies.SACPolicy'>
policy_kwargs:
  desc: null
  value: '{''use_sde'': False}'
policy_type:
  desc: null
  value: MlpPolicy
replay_buffer:
  desc: null
  value: <stable_baselines3.common.buffers.ReplayBuffer object at 0x289adb100>
replay_buffer_class:
  desc: null
  value: <class 'stable_baselines3.common.buffers.ReplayBuffer'>
…
